…
re><h2 id="layer3-4"><a href="#layer3-4" class="headerlink" title="layer3/4"></a>layer3/4</h2><p>å¯¹äºlayer3å’Œlayer4åŒç†ã€‚</p><h2 id="æ‰“å°å®Œæ•´çš„ç½‘ç»œç»“æ„"><a href="#æ‰“å°å®Œæ•´çš„ç½‘ç»œç»“æ„" class="headerlink" title="æ‰“å°å®Œæ•´çš„ç½‘ç»œç»“æ„"></a>æ‰“å°å®Œæ•´çš„ç½‘ç»œç»“æ„</h2><p>æœ€åï¼Œæˆ‘ä»¬æ‰“å°å®Œæ•´çš„ç½‘ç»œç»“æ„ï¼š</p><figure class="highlight python"><table><tr><td class="code"><pre><span class="line">net</span><br></pre></td></tr></table></figure><figure class="highlight plaintext"><table><tr><td class="code"><pre><span class="line">ResNet(</span><br><span class="line">  (conv1): Conv2d(3, 64, kernel_size=(7, 7), stride=(2, 2), padding=(3, 3), bias=False)</span><br><span class="line">  (bn1): BatchNorm2d(64, eps=1e-05, momentum=0.1, affine=True, track_running_stats=True)</span><br><span class="line">  (relu): ReLU(inplace=True)</span><br><span class="line">  (maxpool): MaxPool2d(kernel_size=3, stride=2, padding=1, dilation=1, ceil_mode=False)</span><br><span class="line">  (layer1): Sequential(</span><br><span class="line">    (0): Bottleneck(</span><br><span class="line">      (conv1): Conv2d(64, 64, kernel_size=(1, 1), stride=(1, 1), bias=False)</span><br><span class="line">      (bn1): BatchNorm2d(64, eps=1e-05, momentum=0.1, affine=True, track_running_stats=True)</span><br><span class="line">      (conv2): Conv2d(64, 64, kernel_size=(3, 3), stride=(1, 1), padding=(1, 1), bias=False)</span><br><span class="line">      (bn2): BatchNorm2d(64, eps=1e-05, momentum=0.1, affine=True, track_running_stats=True)</span><br><span class="line">      (conv3): Conv2d(64, 256, kernel_size=(1, 1), stride=(1, 1), bias=False)</span><br><span class="line">      (bn3): BatchNorm2d(256, eps=1e-05, momentum=0.1, affine=True, track_running_stats=True)</span><br><span class="line">      (relu): ReLU(inplace=True)</span><br><span class="line">      (downsample): Sequential(</span><br><span class="line">        (0): Conv2d(64, 256, kernel_size=(1, 1), stride=(1, 1), bias=False)</span><br><span class="line">        (1): BatchNorm2d(256, eps=1e-05, momentum=0.1, affine=True, track_running_stats=True)</span><br><span class="line">      )</span><br><span class="line">    )</span><br><span class="line">    (1): Bottleneck(</span><br><span class="line">      (conv1): Conv2d(256, 64, kernel_size=(1, 1), stride=(1, 1), bias=False)</span><br><span class="line">      (bn1): BatchNorm2d(64, eps=1e-05, momentum=0.1, affine=True, track_running_stats=True)</span><br><span class="line">      (conv2): Conv2d(64, 64, kernel_size=(3, 3), stride=(1, 1), padding=(1, 1), bias=False)</span><br><span class="line">      (bn2): BatchNorm2d(64, eps=1e-05, momentum=0.1, affine=True, track_running_stats=True)</span><br><span class="line">      (conv3): Conv2d(64, 256, kernel_size=(1, 1), stride=(1, 1), bias=False)</span><br><span class="line">      (bn3): BatchNorm2d(256, eps=1e-05, momentum=0.1, affine=True, track_running_stats=True)</span><br><span class="line">      (relu): ReLU(inplace=True)</span><br><span class="line">    )</span><br><span class="line">    (2): Bottleneck(</span><br><span class="line">      (conv1): Conv2d(256, 64, kernel_size=(1, 1), stride=(1, 1), bias=False)</span><br><span class="line">      (bn1): BatchNorm2d(64, eps=1e-05, momentum=0.1, affine=True, track_running_stats=True)</span><br><span class="line">      (conv2): Conv2d(64, 64, kernel_size=(3, 3), stride=(1, 1), padding=(1, 1), bias=False)</span><br><span class="line">      (bn2): BatchNorm2d(64, eps=1e-05, momentum=0.1, affine=True, track_running_stats=True)</span><br><span class="line">      (conv3): Conv2d(64, 256, kernel_size=(1, 1), stride=(1, 1), bias=False)</span><br><span class="line">      (bn3): BatchNorm2d(256, eps=1e-05, momentum=0.1, affine=True, track_running_stats=True)</span><br><span class="line">      (relu): ReLU(inplace=True)</span><br><span class="line">    )</span><br><span class="line">  )</span><br><span class="line">  (layer2): Sequential(</span><br><span class="line">    (0): Bottleneck(</span><br><span class="line">      (conv1): Conv2d(256, 128, kernel_size=(1, 1), stride=(1, 1), bias=False)</span><br><span class="line">      (bn1): BatchNorm2d(128, eps=1e-05, momentum=0.1, affine=True, track_running_stats=True)</span><br><span class="line">      (conv2): Conv2d(128, 128, kernel_size=(3, 3), stride=(2, 2), padding=(1, 1), bias=False)</span><br><span class="line">      (bn2): BatchNorm2d(128, eps=1e-05, momentum=0.1, affine=True, track_running_stats=True)</span><br><span class="line">      (conv3): Conv2d(128, 512, kernel_size=(1, 1), stride=(1, 1), bias=False)</span><br><span class="line">      (bn3): BatchNorm2d(512, eps=1e-05, momentum=0.1, affine=True, track_running_stats=True)</span><br><span class="line">      (relu): ReLU(inplace=True)</span><br><span class="line">      (downsample): Sequential(</span><br><span class="line">        (0): Conv2d(256, 512, kernel_size=(1, 1), stride=(2, 2), bias=False)</span><br><span class="line">        (1): BatchNorm2d(512, eps=1e-05, momentum=0.1, affine=True, track_running_stats=True)</span><br><span class="line">      )</span><br><span class="line">    )</span><br><span class="line">    (1): Bottleneck(</span><br><span class="line">      (conv1): Conv2d(512, 128, kernel_size=(1, 1), stride=(1, 1), bias=False)</span><br><span class="line">      (bn1): BatchNorm2d(128, eps=1e-05, momentum=0.1, affine=True, track_running_stats=True)</span><br><span class="line">      (conv2): Conv2d(128, 128, kernel_size=(3, 3), stride=(1, 1), padding=(1, 1), bias=False)</span><br><span class="line">      (bn2): BatchNorm2d(128, eps=1e-05, momentum=0.1, affine=True, track_running_stats=True)</span><br><span class="line">      (conv3): Conv2d(128, 512, kernel_size=(1, 1), stride=(1, 1), bias=False)</span><br><span class="line">      (bn3): BatchNorm2d(512, eps=1e-05, momentum=0.1, affine=True, track_running_stats=True)</span><br><span class="line">      (relu): ReLU(inplace=True)</span><br><span class="line">    )</span><br><span class="line">    (2): Bottleneck(</span><br><span class="line">      (conv1): Conv2d(512, 128, kernel_size=(1, 1), stride=(1, 1), bias=False)</span><br><span class="line">      (bn1): BatchNorm2d(128, eps=1e-05, momentum=0.1, affine=True, track_running_stats=True)</span><br><span class="line">      (conv2): Conv2d(128, 128, kernel_size=(3, 3), stride=(1, 1), padding=(1, 1), bias=False)</span><br><span class="line">      (bn2): BatchNorm2d(128, eps=1e-05, momentum=0.1, affine=True, track_running_stats=True)</span><br><span class="line">      (conv3): Conv2d(128, 512, kernel_size=(1, 1), stride=(1, 1), bias=False)</span><br><span class="line">      (bn3): BatchNorm2d(512, eps=1e-05, momentum=0.1, affine=True, track_running_stats=True)</span><br><span class="line">      (relu): ReLU(inplace=True)</span><br><span class="line">    )</span><br><span class="line">    (3): Bottleneck(</span><br><span class="line">      (conv1): Conv2d(512, 128, kernel_size=(1, 1), stride=(1, 1), bias=False)</span><br><span class="line">      (bn1): BatchNorm2d(128, eps=1e-05, momentum=0.1, affine=True, track_running_stats=True)</span><br><span class="line">      (conv2): Conv2d(128, 128, kernel_size=(3, 3), stride=(1, 1), padding=(1, 1), bias=False)</span><br><span class="line">      (bn2): BatchNorm2d(128, eps=1e-05, momentum=0.1, affine=True, track_running_stats=True)</span><br><span class="line">      (conv3): Conv2d(128, 512, kernel_size=(1, 1), stride=(1, 1), bias=False)</span><br><span class="line">      (bn3): BatchNorm2d(512, eps=1e-05, momentum=0.1, affine=True, track_running_stats=True)</span><br><span class="line">      (relu): ReLU(inplace=True)</span><br><span class="line">    )</span><br><span class="line">  )</span><br><span class="line">  (layer3): Sequential(</span><br><span class="line">    (0): Bottleneck(</span><br><span class="line">      (conv1): Conv2d(512, 256, kernel_size=(1, 1), stride=(1, 1), bias=False)</span><br><span class="line">      (bn1): BatchNorm2d(256, eps=1e-05, momentum=0.1, affine=True, track_running_stats=True)</span><br><span class="line">      (conv2): Conv2d(256, 256, kernel_size=(3, 3), stride=(2, 2), padding=(1, 1), bias=False)</span><br><span class="line">      (bn2): BatchNorm2d(256, eps=1e-05, momentum=0.1, affine=True, track_running_stats=True)</span><br><span class="line">      (conv3): Conv2d(256, 1024, kernel_size=(1, 1), stride=(1, 1), bias=False)</span><br><span class="line">      (bn3): BatchNorm2d(1024, eps=1e-05, momentum=0.1, affine=True, track_running_stats=True)</span><br><span class="line">      (relu): ReLU(inplace=True)</span><br><span class="line">      (downsample): Sequential(</span><br><span class="line">        (0): Conv2d(512, 1024, kernel_size=(1, 1), stride=(2, 2), bias=False)</span><br><span class="line">        (1): BatchNorm2d(1024, eps=1e-05, momentum=0.1, affine=True, track_running_stats=True)</span><br><span class="line">      )</span><br><span class="line">    )</span><br><span class="line">    (1): Bottleneck(</span><br><span class="line">      (conv1): Conv2d(1024, 256, kernel_size=(1, 1), stride=(1, 1), bias=False)</span><br><span class="line">      (bn1): BatchNorm2d(256, eps=1e-05, momentum=0.1, affine=True, track_running_stats=True)</span><br><span class="line">      (conv2): Conv2d(256, 256, kernel_size=(3, 3), stride=(1, 1), padding=(1, 1), bias=False)</span><br><span class="line">      (bn2): BatchNorm2d(256, eps=1e-05, momentum=0.1, affine=True, track_running_stats=True)</span><br><span class="line">      (conv3): Conv2d(256, 1024, kernel_size=(1, 1), stride=(1, 1), bias=False)</span><br><span class="line">      (bn3): BatchNorm2d(1024, eps=1e-05, momentum=0.1, affine=True, track_running_stats=True)</span><br><span class="line">      (relu): ReLU(inplace=True)</span><br><span class="line">    )</span><br><span class="line">    (2): Bottleneck(</span><br><span class="line">      (conv1): Conv2d(1024, 256, kernel_size=(1, 1), stride=(1, 1), bias=False)</span><br><span class="line">      (bn1): BatchNorm2d(256, eps=1e-05, momentum=0.1, affine=True, track_running_stats=True)</span><br><span class="line">      (conv2): Conv2d(256, 256, kernel_size=(3, 3), stride=(1, 1), padding=(1, 1), bias=False)</span><br><span class="line">      (bn2): BatchNorm2d(256, eps=1e-05, momentum=0.1, affine=True, track_running_stats=True)</span><br><span class="line">      (conv3): Conv2d(256, 1024, kernel_size=(1, 1), stride=(1, 1), bias=False)</span><br><span class="line">      (bn3): BatchNorm2d(1024, eps=1e-05, momentum=0.1, affine=True, track_running_stats=True)</span><br><span class="line">      (relu): ReLU(inplace=True)</span><br><span class="line">    )</span><br><span class="line">    (3): Bottleneck(</span><br><span class="line">      (conv1): Conv2d(1024, 256, kernel_size=(1, 1), stride=(1, 1), bias=False)</span><br><span class="line">      (bn1): BatchNorm2d(256, eps=1e-05, momentum=0.1, affine=True, track_running_stats=True)</span><br><span class="line">      (conv2): Conv2d(256, 256, kernel_size=(3, 3), stride=(1, 1), padding=(1, 1), bias=False)</span><br><span class="line">      (bn2): BatchNorm2d(256, eps=1e-05, momentum=0.1, affine=True, track_running_stats=True)</span><br><span class="line">      (conv3): Conv2d(256, 1024, kernel_size=(1, 1), stride=(1, 1), bias=False)</span><br><span class="line">      (bn3): BatchNorm2d(1024, eps=1e-05, momentum=0.1, affine=True, track_running_stats=True)</span><br><span class="line">      (relu): ReLU(inplace=True)</span><br><span class="line">    )</span><br><span class="line">    (4): Bottleneck(</span><br><span class="line">      (conv1): Conv2d(1024, 256, kernel_size=(1, 1), stride=(1, 1), bias=False)</span><br><span class="line">      (bn1): BatchNorm2d(256, eps=1e-05, momentum=0.1, affine=True, track_running_stats=True)</span><br><span class="line">      (conv2): Conv2d(256, 256, kernel_size=(3, 3), stride=(1, 1), padding=(1, 1), bias=False)</span><br><span class="line">      (bn2): BatchNorm2d(256, eps=1e-05, momentum=0.1, affine=True, track_running_stats=True)</span><br><span class="line">      (conv3): Conv2d(256, 1024, kernel_size=(1, 1), stride=(1, 1), bias=False)</span><br><span class="line">      (bn3): BatchNorm2d(1024, eps=1e-05, momentum=0.1, affine=True, track_running_stats=True)</span><br><span class="line">      (relu): ReLU(inplace=True)</span><br><span class="line">    )</span><br><span class="line">    (5): Bottleneck(</span><br><span class="line">      (conv1): Conv2d(1024, 256, kernel_size=(1, 1), stride=(1, 1), bias=False)</span><br><span class="line">      (bn1): BatchNorm2d(256, eps=1e-05, momentum=0.1, affine=True, track_running_stats=True)</span><br><span class="line">      (conv2): Conv2d(256, 256, kernel_size=(3, 3), stride=(1, 1), padding=(1, 1), bias=False)</span><br><span class="line">      (bn2): BatchNorm2d(256, eps=1e-05, momentum=0.1, affine=True, track_running_stats=True)</span><br><span class="line">      (conv3): Conv2d(256, 1024, kernel_size=(1, 1), stride=(1, 1), bias=False)</span><br><span class="line">      (bn3): BatchNorm2d(1024, eps=1e-05, momentum=0.1, affine=True, track_running_stats=True)</span><br><span class="line">      (relu): ReLU(inplace=True)</span><br><span class="line">    )</span><br><span class="line">  )</span><br><span class="line">  (layer4): Sequential(</span><br><span class="line">    (0): Bottleneck(</span><br><span class="line">      (conv1): Conv2d(1024, 512, kernel_size=(1, 1), stride=(1, 1), bias=False)</span><br><span class="line">      (bn1): BatchNorm2d(512, eps=1e-05, momentum=0.1, affine=True, track_running_stats=True)</span><br><span class="line">      (conv2): Conv2d(512, 512, kernel_size=(3, 3), stride=(2, 2), padding=(1, 1), bias=False)</span><br><span class="line">      (bn2): BatchNorm2d(512, eps=1e-05, momentum=0.1, affine=True, track_running_stats=True)</span><br><span class="line">      (conv3): Conv2d(512, 2048, kernel_size=(1, 1), stride=(1, 1), bias=False)</span><br><span class="line">      (bn3): BatchNorm2d(2048, eps=1e-05, momentum=0.1, affine=True, track_running_stats=True)</span><br><span class="line">      (relu): ReLU(inplace=True)</span><br><span class="line">      (downsample): Sequential(</span><br><span class="line">        (0): Conv2d(1024, 2048, kernel_size=(1, 1), stride=(2, 2), bias=False)</span><br><span class="line">        (1): BatchNorm2d(2048, eps=1e-05, momentum=0.1, affine=True, track_running_stats=True)</span><br><span class="line">      )</span><br><span class="line">    )</span><br><span class="line">    (1): Bottleneck(</span><br><span class="line">      (conv1): Conv2d(2048, 512, kernel_size=(1, 1), stride=(1, 1), bias=False)</span><br><span class="line">      (bn1): BatchNorm2d(512, eps=1e-05, momentum=0.1, affine=True, track_running_stats=True)</span><br><span class="line">      (conv2): Conv2d(512, 512, kernel_size=(3, 3), stride=(1, 1), padding=(1, 1), bias=False)</span><br><span class="line">      (bn2): BatchNorm2d(512, eps=1e-05, momentum=0.1, affine=True, track_running_stats=True)</span><br><span class="line">      (conv3): Conv2d(512, 2048, kernel_size=(1, 1), stride=(1, 1), bias=False)</span><br><span class="line">      (bn3): BatchNorm2d(2048, eps=1e-05, momentum=0.1, affine=True, track_running_stats=True)</span><br><span class="line">      (relu): ReLU(inplace=True)</span><br><span class="line">    )</span><br><span class="line">    (2): Bottleneck(</span><br><span class="line">      (conv1): Conv2d(2048, 512, kernel_size=(1, 1), stride=(1, 1), bias=False)</span><br><span class="line">      (bn1): BatchNorm2d(512, eps=1e-05, momentum=0.1, affine=True, track_running_stats=True)</span><br><span class="line">      (conv2): Conv2d(512, 512, kernel_size=(3, 3), stride=(1, 1), padding=(1, 1), bias=False)</span><br><span class="line">      (bn2): BatchNorm2d(512, eps=1e-05, momentum=0.1, affine=True, track_running_stats=True)</span><br><span class="line">      (conv3): Conv2d(512, 2048, kernel_size=(1, 1), stride=(1, 1), bias=False)</span><br><span class="line">      (bn3): BatchNorm2d(2048, eps=1e-05, momentum=0.1, affine=True, track_running_stats=True)</span><br><span class="line">      (relu): ReLU(inplace=True)</span><br><span class="line">    )</span><br><span class="line">  )</span><br><span class="line">  (avgpool): AvgPool2d(kernel_size=7, stride=1, padding=0)</span><br><span class="line">  (fc): Linear(in_features=2048, out_features=1000, bias=True)</span><br><span class="line">)</span><br></pre></td></tr></table></figure><h1 id="å‚è€ƒèµ„æ–™"><a href="#å‚è€ƒèµ„æ–™" class="headerlink" title="å‚è€ƒèµ„æ–™"></a>å‚è€ƒèµ„æ–™</h1><ol><li>He K, Zhang X, Ren S, et al. Deep residual learning for image recognition[C]//Proceedings of the IEEE conference on computer vision and pattern recognition. 2016: 770-778.</li><li><a href="https://blog.csdn.net/a940902940902/article/details/83858694">ResNetç»“æ„åˆ†æ</a></li><li><a href="https://www.bilibili.com/video/BV1154y1S7WC">å²ä¸Šæœ€è¯¦ç»†ResNet50å¤ç°è§£æï¼ˆé¢å‘å°ç™½ï¼‰</a></li></ol>]]></content>
…
